Starting the script.
running in shell:  /bin/sh
Working with 128px inputs

Aaaand it begins...

Getting Ecoset ready!
Minimum count per class: 601
Maximum count per class: 4900
/share/klab/datasets/ecoset_square256_proper_chunks.h5
Number of classes: 565

Network name: vNet_dataset_ecoset_num_1

The network has 28446901 trainable parameters

Accessing log folders...
Log_folders: logs/perf_logs/vNet_dataset_ecoset_num_1 -- logs/net_params/vNet_dataset_ecoset_num_1
Loading epoch: 68

FLOPs for one pass: 2.398e+10

vNet(
  (connections): ModuleDict(
    (0): Conv2d(3, 128, kernel_size=(7, 7), stride=(1, 1), padding=same)
    (1): Conv2d(128, 128, kernel_size=(7, 7), stride=(1, 1), padding=same)
    (2): Conv2d(128, 256, kernel_size=(5, 5), stride=(1, 1), padding=same)
    (3): Conv2d(256, 256, kernel_size=(5, 5), stride=(1, 1), padding=same)
    (4): Conv2d(256, 512, kernel_size=(3, 3), stride=(1, 1), padding=same)
    (5): Conv2d(512, 512, kernel_size=(3, 3), stride=(1, 1), padding=same)
    (6): Conv2d(512, 1024, kernel_size=(3, 3), stride=(1, 1), padding=same)
    (7): Conv2d(1024, 1024, kernel_size=(3, 3), stride=(1, 1), padding=same)
    (8): Conv2d(1024, 2048, kernel_size=(1, 1), stride=(1, 1), padding=same)
    (9): Conv2d(2048, 2048, kernel_size=(1, 1), stride=(1, 1), padding=same)
    (Readout): Linear(in_features=2048, out_features=565, bias=True)
  )
  (layernorms): ModuleDict(
    (norm_0): GroupNorm(1, 128, eps=1e-05, affine=True)
    (norm_1): GroupNorm(1, 128, eps=1e-05, affine=True)
    (norm_2): GroupNorm(1, 256, eps=1e-05, affine=True)
    (norm_3): GroupNorm(1, 256, eps=1e-05, affine=True)
    (norm_4): GroupNorm(1, 512, eps=1e-05, affine=True)
    (norm_5): GroupNorm(1, 512, eps=1e-05, affine=True)
…
