…
Getting Imagenet ready!
Minimum count per class: 732
Maximum count per class: 1300
/share/klab/datasets/imagenet
Number of classes: 1000

Network name: blt_vs_slt_111_biounroll_0_t_6_readout_multi_dataset_imagenet_num_1

The network has 34989732 trainable parameters

Accessing log folders...
Log_folders: logs/perf_logs/blt_vs_slt_111_biounroll_0_t_6_readout_multi_dataset_imagenet_num_1 -- logs/net_params/blt_vs_slt_111_biounroll_0_t_6_readout_multi_dataset_imagenet_num_1
Loading epoch: 72

FLOPs for one pass: 1.582e+11

BLT_VS(
  (connections): ModuleDict(
    (Retina): BLT_VS_Layer(
      (bu_conv): Conv2d(3, 32, kernel_size=(7, 7), stride=(2, 2), padding=(3, 3))
      (bu_l_conv_depthwise): NoOpModule()
      (bu_l_conv_pointwise): NoOpModule()
      (td_conv): NoOpModule()
      (td_l_conv_depthwise): NoOpModule()
      (td_l_conv_pointwise): NoOpModule()
      (skip_bu_depthwise): NoOpModule()
      (skip_bu_pointwise): NoOpModule()
      (skip_td_depthwise): NoOpModule()
      (skip_td_pointwise): NoOpModule()
      (layer_norm_bu): GroupNorm(1, 32, eps=1e-05, affine=True)
      (layer_norm_td): GroupNorm(1, 32, eps=1e-05, affine=True)
    )
    (LGN): BLT_VS_Layer(
      (bu_conv): Conv2d(32, 32, kernel_size=(7, 7), stride=(2, 2), padding=(3, 3))
      (bu_l_conv_depthwise): NoOpModule()
      (bu_l_conv_pointwise): NoOpModule()
      (td_conv): ConvTranspose2d(576, 32, kernel_size=(5, 5), stride=(2, 2), padding=(2, 2))
      (td_l_conv_depthwise): NoOpModule()
      (td_l_conv_pointwise): NoOpModule()
      (skip_bu_depthwise): NoOpModule()
      (skip_bu_pointwise): NoOpModule()
      (skip_td_depthwise): NoOpModule()
      (skip_td_pointwise): NoOpModule()
      (layer_norm_bu): GroupNorm(1, 32, eps=1e-05, affine=True)
      (layer_norm_td): GroupNorm(1, 32, eps=1e-05, affine=True)
    )
    (V1): BLT_VS_Layer(
      (bu_conv): Conv2d(32, 576, kernel_size=(5, 5), stride=(2, 2), padding=(2, 2))
      (bu_l_conv_depthwise): Conv2d(576, 576, kernel_size=(5, 5), stride=(1, 1), padding=same, groups=576)
      (bu_l_conv_pointwise): Conv2d(576, 576, kernel_size=(1, 1), stride=(1, 1))
      (td_conv): ConvTranspose2d(480, 576, kernel_size=(1, 1), stride=(1, 1))
      (td_l_conv_depthwise): Conv2d(576, 576, kernel_size=(5, 5), stride=(1, 1), padding=same, groups=576)
      (td_l_conv_pointwise): Conv2d(576, 576, kernel_size=(1, 1), stride=(1, 1))
      (skip_bu_depthwise): NoOpModule()
      (skip_bu_pointwise): NoOpModule()
      (skip_td_depthwise): Conv2d(256, 576, kernel_size=(3, 3), stride=(1, 1), padding=same, groups=64)
      (skip_td_pointwise): Conv2d(576, 576, kernel_size=(1, 1), stride=(1, 1))
      (layer_norm_bu): GroupNorm(1, 576, eps=1e-05, affine=True)
      (layer_norm_td): GroupNorm(1, 576, eps=1e-05, affine=True)
    )
    (V2): BLT_VS_Layer(
      (bu_conv): Conv2d(576, 480, kernel_size=(1, 1), stride=(1, 1))
      (bu_l_conv_depthwise): Conv2d(480, 480, kernel_size=(5, 5), stride=(1, 1), padding=same, groups=480)
      (bu_l_conv_pointwise): Conv2d(480, 480, kernel_size=(1, 1), stride=(1, 1))
      (td_conv): ConvTranspose2d(352, 480, kernel_size=(5, 5), stride=(1, 1), padding=(2, 2))
      (td_l_conv_depthwise): Conv2d(480, 480, kernel_size=(5, 5), stride=(1, 1), padding=same, groups=480)
      (td_l_conv_pointwise): Conv2d(480, 480, kernel_size=(1, 1), stride=(1, 1))
      (skip_bu_depthwise): NoOpModule()
      (skip_bu_pointwise): NoOpModule()
      (skip_td_depthwise): NoOpModule()
      (skip_td_pointwise): NoOpModule()
      (layer_norm_bu): GroupNorm(1, 480, eps=1e-05, affine=True)
      (layer_norm_td): GroupNorm(1, 480, eps=1e-05, affine=True)
    )
    (V3): BLT_VS_Layer(
      (bu_conv): Conv2d(480, 352, kernel_size=(5, 5), stride=(1, 1), padding=(2, 2))
      (bu_l_conv_depthwise): Conv2d(352, 352, kernel_size=(5, 5), stride=(1, 1), padding=same, groups=352)
      (bu_l_conv_pointwise): Conv2d(352, 352, kernel_size=(1, 1), stride=(1, 1))
      (td_conv): ConvTranspose2d(256, 352, kernel_size=(3, 3), stride=(1, 1), padding=(1, 1))
      (td_l_conv_depthwise): Conv2d(352, 352, kernel_size=(5, 5), stride=(1, 1), padding=same, groups=352)
      (td_l_conv_pointwise): Conv2d(352, 352, kernel_size=(1, 1), stride=(1, 1))
      (skip_bu_depthwise): NoOpModule()
      (skip_bu_pointwise): NoOpModule()
      (skip_td_depthwise): NoOpModule()
      (skip_td_pointwise): NoOpModule()
      (layer_norm_bu): GroupNorm(1, 352, eps=1e-05, affine=True)
      (layer_norm_td): GroupNorm(1, 352, eps=1e-05, affine=True)
    )
    (V4): BLT_VS_Layer(
      (bu_conv): Conv2d(352, 256, kernel_size=(3, 3), stride=(1, 1), padding=(1, 1))
      (bu_l_conv_depthwise): Conv2d(256, 256, kernel_size=(5, 5), stride=(1, 1), padding=same, groups=256)
      (bu_l_conv_pointwise): Conv2d(256, 256, kernel_size=(1, 1), stride=(1, 1))
      (td_conv): ConvTranspose2d(352, 256, kernel_size=(3, 3), stride=(2, 2), padding=(1, 1))
      (td_l_conv_depthwise): Conv2d(256, 256, kernel_size=(5, 5), stride=(1, 1), padding=same, groups=256)
      (td_l_conv_pointwise): Conv2d(256, 256, kernel_size=(1, 1), stride=(1, 1))
      (skip_bu_depthwise): Conv2d(576, 256, kernel_size=(7, 7), stride=(1, 1), padding=same, groups=64)
      (skip_bu_pointwise): Conv2d(256, 256, kernel_size=(1, 1), stride=(1, 1))
      (skip_td_depthwise): NoOpModule()
      (skip_td_pointwise): NoOpModule()
      (layer_norm_bu): GroupNorm(1, 256, eps=1e-05, affine=True)
      (layer_norm_td): GroupNorm(1, 256, eps=1e-05, affine=True)
    )
    (LOC): BLT_VS_Layer(
      (bu_conv): Conv2d(256, 352, kernel_size=(3, 3), stride=(2, 2), padding=(1, 1))
      (bu_l_conv_depthwise): Conv2d(352, 352, kernel_size=(5, 5), stride=(1, 1), padding=same, groups=352)
      (bu_l_conv_pointwise): Conv2d(352, 352, kernel_size=(1, 1), stride=(1, 1))
      (td_conv): ConvTranspose2d(1100, 352, kernel_size=(5, 5), stride=(2, 2), padding=(2, 2))
      (td_l_conv_depthwise): Conv2d(352, 352, kernel_size=(5, 5), stride=(1, 1), padding=same, groups=352)
      (td_l_conv_pointwise): Conv2d(352, 352, kernel_size=(1, 1), stride=(1, 1))
      (skip_bu_depthwise): NoOpModule()
      (skip_bu_pointwise): NoOpModule()
      (skip_td_depthwise): NoOpModule()
      (skip_td_pointwise): NoOpModule()
      (layer_norm_bu): GroupNorm(1, 352, eps=1e-05, affine=True)
      (layer_norm_td): GroupNorm(1, 352, eps=1e-05, affine=True)
    )
    (Readout): BLT_VS_Readout(
      (readout_conv): Conv2d(352, 1100, kernel_size=(5, 5), stride=(2, 2), padding=(2, 2))
      (global_avg_pool): AdaptiveAvgPool2d(output_size=(1, 1))
      (layer_norm_td): GroupNorm(1, 1100, eps=1e-05, affine=True)
    )
  )
)

Let's use 2 GPUs!

Training begins here!

Epoch: 73
LR now:  5.208333333333333e-06
Epoch is running - 1 batch done!
Max GPU(s) memory reserved: 139.373046875 Gb; 2 GPU(s)
Epoch time:  3151.84  seconds
…
