Starting the script.
running in shell:  /bin/sh
Working with 224px inputs

Aaaand it begins...

Getting Ecoset ready!
Minimum count per class: 601
Maximum count per class: 4900
/share/klab/datasets/ecoset_square256_proper_chunks.h5
Number of classes: 565

Network name: cornet_s_dataset_ecoset_num_1

The network has 53193461 trainable parameters

Accessing log folders...
Log_folders: logs/perf_logs/cornet_s_dataset_ecoset_num_1 -- logs/net_params/cornet_s_dataset_ecoset_num_1
Loading epoch: 44

FLOPs for one pass: 1.646e+10

Sequential(
  (V1): Sequential(
    (conv1): Conv2d(3, 64, kernel_size=(7, 7), stride=(2, 2), padding=(3, 3), bias=False)
    (norm1): BatchNorm2d(64, eps=1e-05, momentum=0.1, affine=True, track_running_stats=True)
    (nonlin1): ReLU(inplace=True)
    (pool): MaxPool2d(kernel_size=3, stride=2, padding=1, dilation=1, ceil_mode=False)
    (conv2): Conv2d(64, 64, kernel_size=(3, 3), stride=(1, 1), padding=(1, 1), bias=False)
    (norm2): BatchNorm2d(64, eps=1e-05, momentum=0.1, affine=True, track_running_stats=True)
    (nonlin2): ReLU(inplace=True)
    (output): Identity()
  )
  (V2): CORblock_S(
    (conv_input): Conv2d(64, 128, kernel_size=(1, 1), stride=(1, 1), bias=False)
    (skip): Conv2d(128, 128, kernel_size=(1, 1), stride=(2, 2), bias=False)
    (norm_skip): BatchNorm2d(128, eps=1e-05, momentum=0.1, affine=True, track_running_stats=True)
    (conv1): Conv2d(128, 512, kernel_size=(1, 1), stride=(1, 1), bias=False)
    (nonlin1): ReLU(inplace=True)
    (conv2): Conv2d(512, 512, kernel_size=(3, 3), stride=(1, 1), padding=(1, 1), bias=False)
    (nonlin2): ReLU(inplace=True)
    (conv3): Conv2d(512, 128, kernel_size=(1, 1), stride=(1, 1), bias=False)
    (nonlin3): ReLU(inplace=True)
    (output): Identity()
    (norm1_0): BatchNorm2d(512, eps=1e-05, momentum=0.1, affine=True, track_running_stats=True)
    (norm2_0): BatchNorm2d(512, eps=1e-05, momentum=0.1, affine=True, track_running_stats=True)
    (norm3_0): BatchNorm2d(128, eps=1e-05, momentum=0.1, affine=True, track_running_stats=True)
    (norm1_1): BatchNorm2d(512, eps=1e-05, momentum=0.1, affine=True, track_running_stats=True)
    (norm2_1): BatchNorm2d(512, eps=1e-05, momentum=0.1, affine=True, track_running_stats=True)
    (norm3_1): BatchNorm2d(128, eps=1e-05, momentum=0.1, affine=True, track_running_stats=True)
  )
  (V4): CORblock_S(
    (conv_input): Conv2d(128, 256, kernel_size=(1, 1), stride=(1, 1), bias=False)
    (skip): Conv2d(256, 256, kernel_size=(1, 1), stride=(2, 2), bias=False)
    (norm_skip): BatchNorm2d(256, eps=1e-05, momentum=0.1, affine=True, track_running_stats=True)
    (conv1): Conv2d(256, 1024, kernel_size=(1, 1), stride=(1, 1), bias=False)
    (nonlin1): ReLU(inplace=True)
    (conv2): Conv2d(1024, 1024, kernel_size=(3, 3), stride=(1, 1), padding=(1, 1), bias=False)
    (nonlin2): ReLU(inplace=True)
    (conv3): Conv2d(1024, 256, kernel_size=(1, 1), stride=(1, 1), bias=False)
    (nonlin3): ReLU(inplace=True)
    (output): Identity()
    (norm1_0): BatchNorm2d(1024, eps=1e-05, momentum=0.1, affine=True, track_running_stats=True)
    (norm2_0): BatchNorm2d(1024, eps=1e-05, momentum=0.1, affine=True, track_running_stats=True)
    (norm3_0): BatchNorm2d(256, eps=1e-05, momentum=0.1, affine=True, track_running_stats=True)
    (norm1_1): BatchNorm2d(1024, eps=1e-05, momentum=0.1, affine=True, track_running_stats=True)
    (norm2_1): BatchNorm2d(1024, eps=1e-05, momentum=0.1, affine=True, track_running_stats=True)
    (norm3_1): BatchNorm2d(256, eps=1e-05, momentum=0.1, affine=True, track_running_stats=True)
    (norm1_2): BatchNorm2d(1024, eps=1e-05, momentum=0.1, affine=True, track_running_stats=True)
    (norm2_2): BatchNorm2d(1024, eps=1e-05, momentum=0.1, affine=True, track_running_stats=True)
    (norm3_2): BatchNorm2d(256, eps=1e-05, momentum=0.1, affine=True, track_running_stats=True)
    (norm1_3): BatchNorm2d(1024, eps=1e-05, momentum=0.1, affine=True, track_running_stats=True)
    (norm2_3): BatchNorm2d(1024, eps=1e-05, momentum=0.1, affine=True, track_running_stats=True)
    (norm3_3): BatchNorm2d(256, eps=1e-05, momentum=0.1, affine=True, track_running_stats=True)
  )
  (IT): CORblock_S(
    (conv_input): Conv2d(256, 512, kernel_size=(1, 1), stride=(1, 1), bias=False)
    (skip): Conv2d(512, 512, kernel_size=(1, 1), stride=(2, 2), bias=False)
    (norm_skip): BatchNorm2d(512, eps=1e-05, momentum=0.1, affine=True, track_running_stats=True)
    (conv1): Conv2d(512, 2048, kernel_size=(1, 1), stride=(1, 1), bias=False)
    (nonlin1): ReLU(inplace=True)
    (conv2): Conv2d(2048, 2048, kernel_size=(3, 3), stride=(1, 1), padding=(1, 1), bias=False)
    (nonlin2): ReLU(inplace=True)
    (conv3): Conv2d(2048, 512, kernel_size=(1, 1), stride=(1, 1), bias=False)
    (nonlin3): ReLU(inplace=True)
    (output): Identity()
    (norm1_0): BatchNorm2d(2048, eps=1e-05, momentum=0.1, affine=True, track_running_stats=True)
    (norm2_0): BatchNorm2d(2048, eps=1e-05, momentum=0.1, affine=True, track_running_stats=True)
    (norm3_0): BatchNorm2d(512, eps=1e-05, momentum=0.1, affine=True, track_running_stats=True)
    (norm1_1): BatchNorm2d(2048, eps=1e-05, momentum=0.1, affine=True, track_running_stats=True)
    (norm2_1): BatchNorm2d(2048, eps=1e-05, momentum=0.1, affine=True, track_running_stats=True)
    (norm3_1): BatchNorm2d(512, eps=1e-05, momentum=0.1, affine=True, track_running_stats=True)
  )
  (decoder): Sequential(
    (avgpool): AdaptiveAvgPool2d(output_size=1)
    (flatten): Flatten()
    (linear): Linear(in_features=512, out_features=565, bias=True)
    (output): output_wrapper()
  )
)

Training begins here!

Epoch: 45
LR now:  8.333333333333333e-05
Epoch is running - 1 batch done!
Max GPU(s) memory reserved: 40.318359375 Gb; 1 GPU(s)
Epoch time:  1665.18  seconds
Train loss: 1.91; acc: 83.48%
Val loss: 2.30; acc: 71.20%; acc_t: [71.19916792]
Saving metrics!
Saving network!

Epoch: 46
LR now:  0.000125
…
